models/model.pth (torch, 4492 bytes, 1 tensors)

fc.weight f4 [1, 768]
000000 ac 31 b5 bc 15 c9 99 3b b0 ac ee bc 38 36 1d 3b
       -0.022118412 0.0046931603 -0.029135078 0.0023988616
000010 57 a9 b7 bc cf c6 1b 3c 1c 2d b5 bb 81 fd 0c 3d
       -0.022419615 0.009507849 -0.005529059 0.034421448
000020 36 dd ad 3c 42 1f 8a bc d8 52 02 3d a4 8c 8e 3c
       0.021223646 -0.016860608 0.031817287 0.017401047
000030 2b d0 0c 3d 24 77 a4 3c 47 8d 01 3d 9a 79 d1 3c
       0.034378212 0.020076342 0.031628873 0.02557068
000040 2c 4b 58 3c 3b 00 d0 bc f7 3b 81 bc c4 e3 d7 3c
       0.013201516 -0.025390735 -0.015775664 0.026353724
000050 fd f3 ac bc ab 08 08 bd 0e ab 0c 3d 69 25 72 3c
       -0.021112436 -0.03321139 0.034342818 0.014779427
000060 c2 6c 95 3c 31 55 75 3c d9 1f 8e bc 3c 9c 20 bc
       0.018240336 0.0149739245 -0.01734917 -0.009802874
000070 ab d4 6a 3c 74 19 11 bc 02 a6 02 bd e6 ef 01 bd
       0.014332931 -0.008856166 -0.0318966 -0.031722926
000080 01 a2 02 bc d3 6c f2 3b f2 ee a7 3a f6 5d 2f bb
       -0.007973195 0.0073982268 0.00128123 -0.0026758886
000090 1c 3a 11 3c 77 af 10 3d ae 7d 94 3b a3 9a 77 3b
       0.008863952 0.035323586 0.0045315837 0.003778138
0000a0 4d ee 7a b8 70 8e 0f 3c f1 42 b8 bc 85 f8 fb 3c
       -5.982658e-05 0.008761987 -0.022492858 0.030758152
0000b0 ed 59 e7 bb 81 5a 03 3c 43 96 22 3b 88 95 ec bc
       -0.0070602805 0.008017183 0.0024808801 -0.028879896
0000c0 e2 ba a6 3c 94 8c c3 3c d6 31 ab bc c4 bb fd bc
       0.020352785 0.023870744 -0.020897787 -0.030973323
0000d0 eb 97 99 bc 16 3d 42 bc b0 e2 05 bb 41 5f 23 b8
       -0.018749198 -0.011855384 -0.0020429306 -3.895094e-05
0000e0 e8 f4 b5 3b b4 10 f8 3b 63 e3 4d bb a1 8c bd bb
       0.0055528767 0.0075703505 -0.003141605 -0.0057845865
0000f0 a5 00 08 bd 1a 75 0a 3c ff 09 8c bc b5 d5 48 3c
       -0.03320374 0.008450771 -0.01709461 0.012257983
000100 c9 0f fa 3c cf 27 ed 3b 54 f8 0f 3c 2a 17 5e 3c
       0.030525105 0.0072374116 0.008787233 0.013555327
000110 cd 1d b5 3c 7d cf cc bb 54 e6 cf 3c d8 ff 39 bc
       0.022108937 -0.0062503205 0.025378384 -0.011352502
000120 e0 64 ca 3c 0a 05 b8 3b 3b fe 2d bc b4 6c 12 bd
       0.024706304 0.005615835 -0.010619695 -0.0357482
000130 07 8f bb 3c 0c 44 10 3d 18 8b f8 3c 41 83 96 bc
       0.02289535 0.035221145 0.030339763 -0.018373134
000140 62 0d f6 bb 07 2c f8 bc 9d af 97 bc f0 c2 da bc
       -0.0075089196 -0.030294431 -0.018516356 -0.026704282
000150 51 93 e5 bc 72 93 03 3c 83 db d9 bc 90 cd 87 bc
       -0.028024347 0.008030759 -0.02659393 -0.016577512
000160 19 8b b1 3c 4f 60 63 3b 80 0b e3 bc 2d b3 63 3c
       0.021672772 0.0034694856 -0.027715445 0.013897699
000170 dc c3 cb 3c 0c d4 44 bc 5c 60 79 bc 33 8d b1 bb
       0.024873666 -0.012013447 -0.015220728 -0.0054184436
000180 37 8b 66 bc 0c 25 e2 3c 0b af 10 bd bc 1b 02 bd
       -0.014071277 0.027605556 -0.035323184 -0.03176473
000190 e1 91 ee bb ad ee b9 bc 18 71 e9 3b ec 37 23 3b
       -0.0072805737 -0.022696817 0.0071240775 0.0024905158
0001a0 85 90 64 3c 47 f5 5d 3c b7 6c 42 bb d9 75 93 bc
       0.013950472 0.013547248 -0.002966685 -0.01800053
0001b0 e3 13 82 bc 61 c2 b2 bc 36 69 24 3c 97 3e cf 3c
       -0.015878623 -0.021821203 0.01003485 0.0252984
0001c0 28 1c 9b 3c c9 c8 26 3b c4 0f 84 3c f8 3c 90 bc
       0.018934324 0.0025449267 0.016120799 -0.017607197
0001d0 f3 8a 20 bc b7 33 9e bc c6 3f 0f 3b 6e eb e2 3c
       -0.009798753 -0.019311769 0.002185808 0.027700152
0001e0 7b f0 93 bb c1 89 ff 3b e0 dd f2 3b 8c cc 02 3d
       -0.0045147515 0.007798404 0.0074117035 0.031933352
0001f0 be 59 b3 bc 58 c7 b7 bc 77 01 d1 bc 55 4d 9e 3b
       -0.021893378 -0.022433922 -0.025513394 0.004830996
000200 74 14 90 3c 04 6e 42 3c 4a 18 87 3b 0e 69 9d 3c
       0.017587878 0.01186705 0.0041227685 0.019215133
000210 5c a3 52 3c 97 f2 44 bc 2d e7 63 3c b6 b0 f9 3c
       0.012856331 -0.012020729 0.013910097 0.03047977
000220 7c 94 0b 3d 12 69 58 3c b5 3a 78 3c ed ca 6b bc
       0.034077153 0.013208644 0.015150716 -0.014391643
000230 74 3f b2 39 75 0a 0d 3c 37 2f 2f 3c 30 62 cf bc
       0.00033998082 0.00860845 0.010692409 -0.025315374
000240 c3 9e d6 3c 60 d9 ce bb 2b d4 a3 bb 1e b3 8e bc
       0.02619875 -0.006312534 -0.0049996576 -0.017419394
000250 58 31 be 3c 91 e4 6c 3c fa 89 d5 3a bf 74 5e 3c
       0.023216888 0.014458791 0.001629173 0.013577639
000260 03 c5 0b 3d aa 07 11 bd 17 b1 06 3d e9 0c c0 3c
       0.034123432 -0.0354077 0.03288373 0.023443656
000270 9f 7a 6d 3b d0 3a 10 bc 5c f6 f5 3b 32 55 a4 3c
       0.0036236418 -0.0088030845 0.007506175 0.020060156
000280 99 0e 66 bc 1c 14 42 bc 1f 9d 58 bb 13 61 a2 3a
       -0.014041566 -0.011845615 -0.0033052636 0.001238855
000290 8b ac d1 3c 5b 4c 4d 3c a1 b2 d8 bb c5 32 ad bb
       0.02559497 0.012530412 -0.006613091 -0.005285593
0002a0 76 7a bc 3a 69 11 32 3b 99 22 0d bc de 74 6c bb
       0.0014379758 0.0027171022 -0.008614206 -0.00360804
0002b0 56 4b a3 3a f6 56 05 3d 64 53 d5 3c 97 3e 01 3d
       0.0012458365 0.032553636 0.02604074 0.03155383
0002c0 6a 39 35 3c 8d dc 04 3c 48 ba 91 bb 0d af f9 bc
       0.011061052 0.008109224 -0.0044472553 -0.030478979
0002d0 f0 92 a8 bc 5f fb a0 3c 4a 28 63 bc b4 3e 6f 3c
       -0.020577878 0.019651113 -0.013864586 0.014602352
0002e0 a9 3d ca 3c ae 51 9d 3b e6 b2 8d 3c a0 58 09 bd
       0.024687605 0.0048009967 0.01729722 -0.033531785
0002f0 6e 1c c3 3c 30 fd e8 ba 25 78 99 3b 51 e6 e4 bc
       0.023817267 -0.0017775651 0.004683512 -0.027941855
000300 30 c9 88 3c bd 6c c5 3b af f1 e3 3c c6 e9 e6 bb
       0.016697496 0.0060249255 0.027825205 -0.007046911
000310 4f f6 ba bc a8 4c 74 bc 86 7c 94 bc fc 11 2a 3c
       -0.022822527 -0.014910854 -0.018125784 0.010380264
000320 d7 c5 a3 3c 2e 64 57 3c 85 61 b1 bc fc c2 c1 bc
       0.019991798 0.013146443 -0.021652946 -0.023652546
000330 8e 0f b3 bc 27 30 95 ba 91 72 af bc 08 01 b6 ba
       -0.021858003 -0.0011382148 -0.021416934 -0.0013885805
000340 a1 b7 a9 ba 03 90 2e bc 39 55 bc 3a c7 3b 4f bb
       -0.0012948402 -0.010654452 0.001436866 -0.0031621323
000350 ed 43 95 b9 56 51 81 bc 33 5a 6a bc 4a d4 94 bc
       -0.00028470103 -0.015785854 -0.014303732 -0.018167634
000360 82 23 0c bd b1 63 0b 3c aa 9b 5d 3b 3c 0e ae bb
       -0.03421355 0.008507655 0.0033814707 -0.0053117555
000370 1e 39 5f bc 58 15 7b 3c 57 80 e1 bc b1 fa ec 3c
       -0.013624458 0.015324913 -0.027527018 0.028928133
000380 8d 01 d4 3c ed 39 06 bd 0e 69 eb bc 65 72 97 3c
       0.025879646 -0.032770086 -0.028736617 0.018487165
000390 06 3a 7d 3c 0d 4c 67 bc f7 1f 81 3c ae 84 46 ba
       0.015455728 -0.014117253 0.015762312 -0.00075728714
0003a0 2f fc a5 bc 21 43 0f 3c 1e 7c 9c 3c 75 14 fb bc
       -0.020261852 0.008744032 0.019102152 -0.030649403
0003b0 6b 57 cf bb e0 16 c9 3c 4e 85 cb 3c 4e 6d 07 3c
       -0.0063275597 0.02454704 0.024843838 0.008265806
0003c0 3f e0 62 bc 11 ad ba 3c fd 4c bf bc 6b 5d dd 3c
       -0.01384741 0.022787603 -0.02335214 0.027022084
0003d0 c0 17 09 3c 1e 1a f0 3c 41 a5 39 3c 3f 02 95 3c
       0.008367479 0.029309329 0.0113309035 0.018189548
0003e0 28 1f ba bc a2 76 9f 3b 45 13 31 3c 06 ef a7 bc
       -0.022719935 0.004866437 0.010807817 -0.020499717
0003f0 ed 51 15 bc f9 67 11 bc 1b da 26 3a af 8e d4 b9
       -0.009113771 -0.008874887 0.00063648977 -0.000405421
